classifier_head.pth (torch, 12197 bytes, 2 tensors)

weight f4 [5, 512]
000000 e5 41 ed bc d7 2d 71 3c b4 ff 16 3c b2 0b 55 bc
       -0.028962085 0.014720402 0.009216238 -0.013003277
000010 1c 8e f0 3c 8e ea dc 3c d7 21 24 bd eb 0d 00 bd
       0.029364638 0.026967313 -0.040071335 -0.031263273
000020 66 b9 85 3c 8f c5 bc ba 26 b1 5d 3c 63 ed b4 bc
       0.016323756 -0.0014402139 0.013531005 -0.022085851
000030 db 56 0b bd fa bc a4 3c e8 04 a3 bb 26 90 32 bc
       -0.03401838 0.020109642 -0.00497495 -0.0108986255
000040 e0 18 15 3d 70 88 d0 bc 96 86 94 bc eb ad 29 3b
       0.036400676 -0.025455683 -0.018130582 0.0025891017
000050 8d fc 84 bc 6a a4 05 3c 32 ae ac 3c 22 02 98 3c
       -0.016233707 0.008156875 0.021079157 0.018555705
000060 de 35 16 3d cb f4 95 3c 4d 98 1a 3d 63 59 ad bc
       0.036672466 0.018305203 0.0377429 -0.021160787
000070 55 5b 3b 3c 89 6a 2b 3d 19 14 62 3c 2b 4a e1 3c
       0.0114353495 0.041849647 0.013798737 0.027501186
000080 e8 e0 fa bc 3f b9 94 bc 95 05 bf bc c0 8d 22 3d
       -0.030624822 -0.018154738 -0.023318091 0.039685965
000090 ff 05 90 bc 7e 7b d0 bc 13 96 17 3c 4a 62 d5 3b
       -0.017580984 -0.02544951 0.009252089 0.006511961
0000a0 48 26 1f 3d 22 c1 4e 3c 8b 56 04 bd cf ac e8 bc
       0.038854867 0.012619289 -0.032309096 -0.028402714
0000b0 3a 6b 55 3c 3b 05 b2 3c 2c 21 42 bc cf 00 09 3c
       0.013026053 0.02173101 -0.011848729 0.008362009
0000c0 36 51 13 bd 9f 7d 67 bc 04 53 ca 3c 9b 84 2d 3d
       -0.03596612 -0.0141290715 0.024697788 0.04236279
0000d0 19 67 f4 3c 21 4a 9d ba 26 75 27 3c 48 b9 99 3c
       0.029834317 -0.0012000242 0.010220801 0.018765107
0000e0 69 2d 83 bb 96 7f 63 bc af 36 a0 bc 92 b6 d8 bc
       -0.004003216 -0.013885399 -0.019557325 -0.026454244
0000f0 4a 1b c9 3b b8 11 19 bc 9f e7 e5 bc 5d 7e 84 3b
       0.0061372863 -0.009342603 -0.028064547 0.004043384
000100 77 09 10 3d 20 1a 10 bd 6c 51 fa bb 94 ed ab 3c
       0.035165276 -0.035181165 -0.007639101 0.02098731
000110 eb 29 80 bc d3 c0 dd 3c 6d 61 07 bb 99 fb 4c bc
       -0.015644988 0.027069485 -0.0020657436 -0.012511157
000120 b0 a5 f9 bc 83 b1 1c 3d f1 de 19 3d f8 22 61 3c
       -0.030474514 0.038255226 0.03756613 0.013741247
000130 1f 57 9b bb 60 3a c7 bb 4a 0b a9 3c a5 96 7c bc
       -0.0047406103 -0.006079957 0.020635266 -0.015416776
000140 fd 07 df 3b db 86 ab 3c 32 e6 ae 3c 0f 7e c6 3c
       0.006806372 0.020938328 0.02135 0.024230031
000150 b7 68 39 3c 7e 81 91 bb a5 4d d6 bb e5 43 fd bc
       0.01131647 -0.0044404855 -0.0065400177 -0.030916164
000160 72 b4 b0 bc c1 e9 9a bb bb e3 07 3d 64 33 49 3b
       -0.021570418 -0.0047275727 0.033176165 0.0030700797
000170 1e 44 cb 3c 92 88 f8 bc 29 71 f4 bc c2 fe 60 bc
       0.024812754 -0.03033856 -0.029839115 -0.013732614
000180 f3 d3 92 3c 6e 29 ac bb 66 b3 1b 3d e1 c8 97 3c
       0.01792333 -0.0052539622 0.038012885 0.018528404
000190 5f 1f aa 3c 6f 1a 8b bc fd ed ca ba d1 70 09 bd
       0.020766912 -0.016980378 -0.0015482303 -0.033554856
0001a0 92 8e a5 3b 22 cc 47 3c f3 17 e8 bc 4b 60 3f 3b
       0.005052396 0.012194665 -0.028331732 0.0029201682
0001b0 eb c9 1c bd bd d1 98 bb 32 05 27 bd 5a 68 f7 3c
       -0.0382785 -0.0046636746 -0.04077644 0.030201126
0001c0 34 40 ad bc 7e b5 da 3c f5 67 ab bc da a0 7d 3a
       -0.021148778 0.02669787 -0.020923594 0.0009675153
0001d0 3e c6 f7 3c f0 e1 b5 bc 30 ae 07 bd f1 a6 07 3d
       0.030245896 -0.022202462 -0.033125103 0.033118192
0001e0 d5 df 52 3c 57 44 80 bb 3d 78 83 3c 07 16 24 3d
       0.0128707485 -0.0039143967 0.016048545 0.04006007
0001f0 a4 37 b2 3c 70 95 42 bc 9d ec 7a 3b 81 ce 18 bd
       0.021755047 -0.011876449 0.0038288005 -0.037306312
000200 11 1d 1d 3d ce d9 cd 3b e2 fa b1 bc fb 84 ba ba
       0.038357798 0.006282068 -0.021726076 -0.0014230305
000210 ee ab 92 bb 26 d1 27 3d 7e bf a0 3c 45 57 07 3d
       -0.004476062 0.040970944 0.01962256 0.03304221
000220 74 6e 1c 3c d3 77 6c 3c cc 3b 12 bd dd 19 20 3d
       0.009547818 0.014432865 -0.035701558 0.039087165
000230 46 a5 93 bc 20 a9 18 bc 67 84 fc 3c 20 94 17 3a
       -0.018023144 -0.009317666 0.030824853 0.0005782265
000240 f4 ce e3 3c c2 1e 93 3c 8e e7 8a bc b9 7c 3e bc
       0.027808644 0.017959002 -0.016956117 -0.011626416
000250 86 14 71 bc a9 79 1c bc d2 68 06 3c 95 43 1e 3d
       -0.014714366 -0.00955049 0.008203702 0.03863867
000260 59 18 9f bc d4 74 d4 bc 25 88 30 3b 44 9b 1b bd
       -0.01942079 -0.025934614 0.0026936617 -0.03798987
000270 1a 5c 3a bc 1f ad 3d bc 72 31 b7 bc f5 16 97 bb
       -0.011374498 -0.01157692 -0.022362445 -0.004610891
000280 f8 ce ff 3b db c0 3a bd 1a f4 8f 3c 1d 15 26 3b
       0.007806655 -0.045594078 0.017572451 0.0025342174
000290 2a 21 eb 3c 83 7e 25 3c ce 6f f6 bc a0 6c 06 bd
       0.028702337 0.0101009635 -0.03008261 -0.032818437
0002a0 c7 19 0c bd 43 3f bb 3c c6 a7 0a bd f5 09 19 3c
       -0.03420427 0.022857314 -0.033851407 0.009340753
0002b0 46 de d7 3c f4 f0 26 3d b8 30 de bb d9 eb 1f 39
       0.026351105 0.040757135 -0.00678071 0.00015251282
0002c0 1a 7a 0b bb 24 76 01 3d 3a 13 e0 bc 66 ae ec bc
       -0.0021282495 0.03160681 -0.027352918 -0.028891753
0002d0 ee 69 d0 3c 98 7d 0e 3c 7c 95 84 bb 8e fa 10 3d
       0.025441136 0.008696936 -0.0040461402 0.035395198
0002e0 ef b4 f4 3c 87 28 ce 3c 73 8b e6 bc 01 b3 76 3c
       0.029871432 0.02516581 -0.028142666 0.015057326
0002f0 4c c0 e9 ba ca 0e 25 bd 5b 11 80 bc 6a 15 b0 3b
       -0.0017833798 -0.040297307 -0.015633276 0.0053736465
000300 c0 80 59 38 f7 35 e7 bc 30 bd 2f 3c d6 09 e0 bb
       5.185674e-05 -0.028223975 0.010726258 -0.00683711
000310 12 f4 50 bc f3 8c f2 3c 79 87 19 3c 1f 77 ac bc
       -0.012753503 0.029608225 0.009370678 -0.021052895
000320 41 21 39 3c fc 7d b1 3c f5 46 0f bb 10 74 b1 bc
       0.011299432 0.02166652 -0.0021862362 -0.021661788
000330 5a 07 80 bc 1b 19 b4 3c c0 0c 03 bb a6 3f 53 bc
       -0.015628505 0.021984627 -0.0019996613 -0.012893593
000340 00 01 07 bd 61 82 3b 3c b9 fc 4b ba ac 87 9f bc
       -0.032959938 0.011444659 -0.0007781494 -0.019473873
000350 96 96 24 3d 28 7f 0c bd fd f2 80 3c 91 11 ec 3c
       0.040182672 -0.034300953 0.015740866 0.02881697
000360 fa 58 be 3b 4d 21 95 3c 05 0a ac 3c d5 16 46 3c
       0.0058089467 0.018204356 0.021000871 0.0120904045
000370 ce d3 b5 3c 33 db 92 3c 16 30 87 3c 19 fd 22 3d
       0.022195723 0.017926788 0.016502421 0.039792154
000380 2f af d0 bc cd 74 c2 bc a6 ca 68 3b 29 28 90 3c
       -0.025474159 -0.023737336 0.0035521179 0.017597275
000390 11 db 99 3c 63 2f b2 bb 7a c0 cb bc 24 b9 c4 3b
       0.018781217 -0.005437778 -0.024872053 0.006003516
0003a0 57 47 9b 3c 35 f4 25 bc 91 b5 aa bb b0 9e f2 bb
       0.018954916 -0.010129024 -0.0052096327 -0.007404171
0003b0 7d 09 39 bc 39 90 e2 3c a9 0a 85 bc bf 59 da 3c
       -0.011293766 0.027656661 -0.016240435 0.026654122
0003c0 61 e3 bb 3c 27 a0 df bc 86 e4 06 3d 96 1d d2 bc
       0.022935571 -0.027298046 0.03293278 -0.025648873
0003d0 41 20 c9 ba 89 07 11 bd 3a 8e 90 3b e7 6b 93 3c
       -0.0015344695 -0.035407577 0.004411486 0.017995788
0003e0 9e 0a d6 bc 7e 88 87 3c 6f e6 4b bc 91 be c2 bc
       -0.02612811 0.016544577 -0.012445076 -0.02377251
0003f0 0c be 26 3c 14 e3 1d 3c 7e 9f e5 3b 28 13 41 bb
       0.010177147 0.009636659 0.0070075383 -0.002946088

bias f4 [5]
000000 56 db cf bc 82 80 c1 bc 8c 07 aa 3c 4c 76 94 3c
       -0.025373142 -0.023620848 0.020755552 0.018122815
000010 98 bf 4f 3b
       0.0031699892
